Backend/model/model_new.pt (torch, 44631 bytes, 5 tensors)

lstm.weight_ih_l0 f4 [200, 1]
0	0x3f96f443	1.1793293
1	0x3f4b316d	0.7937229
2	0x3f8e19e0	1.1101646
3	0x3ff7a871	1.9348279
4	0x3fdc38b4	1.7204804
5	0x3f73a6b2	0.9517623
6	0x3ff27982	1.8943331
7	0x3e8a058c	0.26957357
8	0x3fd2bf54	1.6464639
9	0x3fbcb021	1.474125
10	0x3fafbb9f	1.3729132
11	0x3fbdf399	1.4839965
12	0xbdd850b1	-0.10562266
13	0x3ec0f4f9	0.376869
14	0x3ea7673d	0.32695952
15	0x3ec25b62	0.37960345
16	0x4004e541	2.0764925
17	0xbe06cac7	-0.13163291
18	0x3cd3197d	0.02576899
19	0x3f847d42	1.0350726
20	0x3f9141ff	1.1348265
21	0xbf647444	-0.8923991
22	0x3e35e3f1	0.17762734
23	0x3df43d5c	0.11925766
24	0x3f1618e7	0.5863175
25	0x3ea80169	0.32813576
26	0x3fd7590b	1.6824049
27	0x3f3cf578	0.73812056
28	0x3f6d78ef	0.92762655
29	0x3f29fbc2	0.66399777
30	0x3ef3f814	0.47650206
31	0x3fa698e6	1.3015411
32	0x3f347a83	0.7049944
33	0x3fb2adab	1.3959249
34	0xbeb4fd64	-0.35349572
35	0x3fa02d23	1.2513775
36	0xbe5e43be	-0.21705529
37	0xbea0219a	-0.31275636
38	0x3f86b88c	1.0525069
39	0xbd5f935d	-0.054583896
40	0x3f2a3290	0.664834
41	0xbd6d29e0	-0.057901263
42	0x3e91bd6b	0.28464827
43	0x4047066e	3.1097674
44	0x3f99414b	1.1973051
45	0x3f808fbe	1.0043867
46	0xbe3e7dd3	-0.18602686
47	0x3f1a8e8d	0.60373765
48	0xbd5022ab	-0.050814312
49	0x3eb55a76	0.3542058
50	0xbe938186	-0.28809756
51	0x3eb89450	0.36050653
52	0x3e222ebe	0.15838143
53	0x3e89ce42	0.26915175
54	0x3ec841ae	0.3911261
55	0x3f452162	0.77004063
56	0x3f5cb19b	0.86208504
57	0x3eee51ed	0.4654688
58	0xbebb0014	-0.36523497
59	0xbf78e9e4	-0.9723189
60	0x3e82b0c3	0.25525483
61	0x3d6b0e05	0.057386417
62	0xbe55e27c	-0.20887178
63	0xbc697f75	-0.0142515795
64	0x3ee92b29	0.4554074
65	0xbf1fd1d2	-0.62429535
66	0x40094275	2.1446812
67	0xbefb0294	-0.49025404
68	0xbeded9ea	-0.4352563
69	0xbf97402e	-1.1816461
70	0x3e8951fc	0.26820362
71	0xbec47468	-0.3837006
72	0xbe28e54b	-0.16493718
73	0xbf0b34ed	-0.54377633
74	0xbe729ae3	-0.23691897
75	0x3e7251c8	0.2366401
76	0x3f854641	1.0412065
77	0xbe26ae48	-0.1627742
78	0xbe4abab6	-0.19797787
79	0x3eaa2c94	0.33237135
80	0x3e5cc296	0.21558604
81	0xbeb5ca42	-0.35505873
82	0x3c993580	0.018702269
83	0xbf0f991d	-0.5609301
84	0x3eb60351	0.35549405
85	0xbff5d103	-1.920441
86	0xbf459e15	-0.7719434
87	0x3eccd296	0.40004414
88	0x3dfc1d43	0.12310269
89	0xbdde66be	-0.1085944
90	0xbe2f9ac3	-0.1714888
91	0xbe8e822e	-0.27833694
92	0xbf6ffc56	-0.9374441
93	0x3fd718d8	1.6804457
94	0xbd4b7b5f	-0.049678203
95	0x3e51a3aa	0.20472589
96	0xbed0de0d	-0.4079441
97	0x3e8ff1fd	0.2811431
98	0x3efa3e3d	0.4887561
99	0xbee95601	-0.45573428
100	0x3ee513e8	0.4474175
101	0xbf0a0ea6	-0.539286
102	0x3f6c8e5c	0.92404723
103	0xbf15a06e	-0.5844792
104	0x3ef49e75	0.47777143
105	0x3fc31ea5	1.5243727
106	0xbf5fb9e5	-0.8739303
107	0xbf3f99a3	-0.74843806
108	0x3fe06017	1.7529324
109	0xbfae696a	-1.362592
110	0xbeb3d929	-0.35126618
111	0xbe7f8ba8	-0.24955618
112	0xbe0da39f	-0.13831948
113	0x400be1eb	2.185664
114	0x3e8021d4	0.2502581
115	0x4015ba2d	2.3394883
116	0xbfb6e30f	-1.4288043
117	0xbf9bea36	-1.218085
118	0xbe7f6f09	-0.249447
119	0xbfac2e88	-1.34517
120	0x3f325a2e	0.69668853
121	0x3dfce5f3	0.12348547
122	0xbe56fd0f	-0.20994972
123	0x3e5ece5d	0.21758409
124	0xbfaa018c	-1.3281722
125	0xbf2c1107	-0.6721348
126	0x3fdc4746	1.7209251
127	0x3ee868b6	0.45392388
128	0x3fb2f100	1.3979797
129	0x3f498cea	0.7873064
130	0x3f838728	1.0275621
131	0x3f43865f	0.7637691
132	0xbf502335	-0.8130372
133	0x3f55ed28	0.83564997
134	0x3f138ad9	0.5763374
135	0x3fbbbab9	1.4666358
136	0xbf0730bf	-0.52808756
137	0x3f62ef8f	0.8864679
138	0xbfa36708	-1.2765818
139	0xbf43ef31	-0.7653685
140	0x3f147669	0.5799318
141	0x3e10b999	0.141333
142	0x3f0f9e8a	0.56101286
143	0xbfff9afe	-1.9969175
144	0x3ed92288	0.42409158
145	0xbf20d3f0	-0.6282339
146	0xbd93d2b2	-0.07217921
147	0x3eaa8e29	0.33311585
148	0xbeb7df24	-0.3591243
149	0xbe9ccc53	-0.30624637
150	0x3f9d8739	1.2306892
151	0x3f9ed821	1.2409707
152	0x3f960a4b	1.1721891
153	0xbea51344	-0.3224126
154	0x3f2c1441	0.67218405
155	0x3f53e482	0.8277055
156	0xbf94a1f6	-1.1611927
157	0x3c81e0bb	0.01585423
158	0xbf548927	-0.8302178
159	0xbf82cc76	-1.0218647
160	0x3f610799	0.8790222
161	0x3f0ac59a	0.54207766
162	0x3e1bac43	0.15202431
163	0xbf945576	-1.1588581
164	0x3ea42edb	0.32066998
165	0xbf4fc384	-0.8115771
166	0x3fa5aa0a	1.2942517
167	0xbe7d0601	-0.24709322
168	0xbf8ef920	-1.1169777
169	0xbefb8e2a	-0.491319
170	0x3f9df69b	1.2340883
171	0x3f8be964	1.09306
172	0x3f42fa28	0.7616296
173	0xbf805b3f	-1.0027846
174	0x3f8ab949	1.0837795
175	0x3f10ea11	0.56607157
176	0xbf634202	-0.88772595
177	0x3ec06b23	0.3758174
178	0xbec72962	-0.3889876
179	0x3f8411eb	1.0317968
180	0x40127b05	2.2887585
181	0xbfb3beef	-1.4042643
182	0xbf6c54d4	-0.9231694
183	0xbf9a36e2	-1.2047999
184	0xbe078739	-0.13235177
185	0xc0084c2e	-2.1296496
186	0xbe268de4	-0.16265064
187	0x3e732d3a	0.23747721
188	0x3f45c305	0.772507
189	0x3f7cc954	0.987447
190	0x3f73b810	0.9520273
191	0xbe6c863a	-0.23098078
192	0xbe8074b7	-0.25089046
193	0xbf961fcd	-1.1728455
194	0xbec2a31e	-0.38015074
195	0x4013a14e	2.3067203
196	0xbf01d00e	-0.5070809
197	0x3f757830	0.95886517
198	0x3efa1554	0.48844397
199	0x3eea7798	0.45794368

lstm.weight_hh_l0 f4 [200, 50]
0	0xbfa439e5	-1.2830168
1	0x3e4df760	0.20113897
2	0xbf0bb218	-0.54568624
3	0xbf463fbd	-0.77441007
4	0x3f460e52	0.773656
5	0xbe681d8e	-0.22667524
6	0x3f8640d2	1.0488532
7	0x3f1bc09d	0.6084078
8	0x3fa67cda	1.3006852
9	0xbde5866e	-0.11207281
10	0x3ef8ade7	0.48570177
11	0x3fc78b80	1.5589447
12	0xbf83c1a5	-1.0293471
13	0xbf448da5	-0.7677863
14	0xbea686a6	-0.32524604
15	0xc000eee0	-2.0145798
16	0x3eced595	0.40397325
17	0x3e06ffab	0.13183467
18	0x3f83ff47	1.031228
19	0x3eaa28f4	0.3323437
20	0x3ecce144	0.40015614
21	0x3ebfb637	0.37443706
22	0xbf786299	-0.9702545
23	0x3fff02c8	1.9922724
24	0xbfaa81ae	-1.3320825
25	0xbf91daf1	-1.1394941
26	0x3fab61a1	1.3389169
27	0x3eb94316	0.36183995
28	0x3fce1ccc	1.6102538
29	0xbf64be6a	-0.8935305
30	0xbf3464e7	-0.70466465
31	0x40012e6b	2.0184581
32	0x3ff72485	1.930802
33	0xbf68f5e8	-0.91000223
34	0x405c62a6	3.443521
35	0x40938aff	4.6107173
36	0xbd2ddf8b	-0.042449515
37	0xbf1cbf70	-0.6122961
38	0xbdcae465	-0.09906844
39	0xbf6b0a14	-0.91812253
40	0xbf9fa0b3	-1.2470917
41	0xbf2cd41a	-0.6751114
42	0xbf2df382	-0.6794969
43	0xbe92df88	-0.28686166
44	0x3dd0fdd4	0.10204664
45	0x3f51c5db	0.8194253
46	0xc0bb5875	-5.854548
47	0xbf97d94a	-1.1863186
48	0x3fadfa5f	1.3592032
49	0xbfb0921f	-1.3794593
50	0xbef1a891	-0.47198918
51	0x3f5aa9d4	0.8541539
52	0xbf242e8b	-0.6413352
53	0x3f411deb	0.75436276
54	0x3fafbfdb	1.3730425
55	0xbfa50b79	-1.2894126
56	0x3f4bacc1	0.79560477
57	0xbf58ae68	-0.8464112
58	0x3d8e6fcb	0.069549166
59	0xbce41e32	-0.02784643
60	0xbfc047ab	-1.5021871
61	0x4039014f	2.8907049
62	0x3f26eaa4	0.65201783
63	0xbf051f73	-0.5200111
64	0x3ee6ab29	0.4505246
65	0xbf0892b9	-0.5334888
66	0xbbdc2db0	-0.0067193136
67	0x3f3fe38e	0.74956596
68	0x3fcccf89	1.6000835
69	0x3ea02e67	0.31285402
70	0x402e94d9	2.727835
71	0x3e7cc50c	0.24684542
72	0xbd870309	-0.06592376
73	0x400a3d78	2.1600018
74	0xbe8b45ee	-0.2720179
75	0x3e1efb6d	0.15525599
76	0x3fc22d32	1.5170043
77	0x3ec72e03	0.38902292
78	0x3ed7eb22	0.4217158
79	0xbf45b909	-0.77235466
80	0xbde3854b	-0.11109408
81	0x3fcedb32	1.6160643
82	0x3f1f736b	0.6228549
83	0xbee8af39	-0.45446184
84	0x3e708e6d	0.23491831
85	0xbfb07a6f	-1.3787364
86	0x3fc2c717	1.5217007
87	0x3fa766a4	1.3078198
88	0x402cd874	2.7007113
89	0xbf8d88ee	-1.1057413
90	0x3f3675dc	0.7127359
91	0xbfa92ba0	-1.3216438
92	0xbf061866	-0.5238098
93	0xbee82622	-0.45341593
94	0x3f37f63b	0.7186009
95	0xbe07b66c	-0.13253182
96	0xbe9ed54f	-0.31022117
97	0x3f09150a	0.5354773
98	0x3f4714b3	0.7776596
99	0xbf0eb4f4	-0.5574486
100	0x3e24c64a	0.16091266
101	0xbfa2b63f	-1.2711867
102	0x3e3fc6ec	0.18728226
103	0x3f1d03a9	0.6133371
104	0x3efe5f5d	0.4968213
105	0xbffa11c1	-1.9536668
106	0x3f4bc016	0.79589975
107	0x3f1c272a	0.6099726
108	0x3f7749be	0.96596897
109	0xbf4d7712	-0.8025981
110	0x3f0219f6	0.50820863
111	0x3f7f74a0	0.9978733
112	0x3fa48e27	1.2855881
113	0xbd7b4833	-0.06134815
114	0xbe902c4d	-0.281588
115	0x3f477006	0.7790531
116	0x3eb43e73	0.35203895
117	0x3dd8d8ad	0.105882026
118	0x3f5fd2f9	0.87431294
119	0xbf7d5365	-0.98955375
120	0x3f969778	1.1764975
121	0x3f27d9b0	0.6556654
122	0xbe9d3a87	-0.30708715
123	0xbd937144	-0.07199338
124	0x3f12e759	0.5738426
125	0xbd5f6f94	-0.05454977
126	0x3dd7f76f	0.10545241
127	0xbc73b99f	-0.0148757985
128	0x3eda54e2	0.42642885
129	0xbdcc0543	-0.09961941
130	0xbf5de83e	-0.866825
131	0xbed8ad0f	-0.42319533
132	0xbfce45d4	-1.611506
133	0x3f99af02	1.2006533
134	0xbef69c79	-0.48166254
135	0x3f3500fb	0.7070462
136	0xbf44ccd1	-0.76875025
137	0x3ed4f826	0.41595572
138	0xbe52eab2	-0.20597342
139	0x3edf3e28	0.4360211
140	0xbce8d005	-0.028419504
141	0x3ee43212	0.4456945
142	0x3fc4e13b	1.5381235
143	0xbf735204	-0.9504702
144	0x3e5d8e04	0.21636206
145	0xbf3848d7	-0.71986145
146	0xbf57a73b	-0.8423955
147	0xbf45e997	-0.77309555
148	0xbe2342d0	-0.15943456
149	0xbe776242	-0.24158576
150	0xc030cf3b	-2.7626483
151	0xbff0b1d2	-1.8804266
152	0x3f413339	0.75468785
153	0x3e3992a0	0.18122339
154	0x3ee1e431	0.4411941
155	0x3f9d95c5	1.2311331
156	0x3f9bcdce	1.2172182
157	0xbff4fc7b	-1.9139551
158	0xbf80ee1a	-1.0072663
159	0xbecde1c9	-0.40211323
160	0xc012d461	-2.2942126
161	0xbec0f7f9	-0.37689188
162	0x3fa36913	1.2766441
163	0x407b717e	3.928802
164	0x3faf713e	1.3706434
165	0x3db0755f	0.08616137
166	0xbf139d4d	-0.57661897
167	0x3f2d6a5e	0.6774043
168	0xbf8e408e	-1.111345
169	0xbea048ec	-0.31305635
170	0xbec53789	-0.38518932
171	0xbfb834b7	-1.4391087
172	0xc0034762	-2.0512319
173	0x3f298146	0.6621288
174	0xc0550d14	-3.3289232
175	0xbef2ed9c	-0.47446907
176	0x3dc25992	0.094897404
177	0x3f34f97e	0.70693195
178	0xbf2cd2c6	-0.67509115
179	0x3fecbf8c	1.8495955
180	0x3f7bc270	0.98343563
181	0xbf8effbb	-1.1171793
182	0x3fd945b7	1.69744
183	0xbfb239ba	-1.3923867
184	0xbfa72957	-1.3059491
185	0xbe3e5df6	-0.18590531
186	0x3ff22227	1.8916672
187	0xbe566d82	-0.20940211
188	0xbf6636e3	-0.899275
189	0x3f09db41	0.5385018
190	0x3fbfaad0	1.4974003
191	0xbf82fd3e	-1.0233533
192	0x3fc41fe7	1.5322236
193	0xbe4f04ba	-0.20216647
194	0x3fb88355	1.4415079
195	0x3ed9cd70	0.4253955
196	0x3ff3a786	1.9035499
197	0x3fb63ae6	1.4236724
198	0x3f0bbacb	0.545819
199	0x3e731125	0.23737009
200	0x3f8cbc02	1.0994875
201	0xbf3841ac	-0.7197521
202	0x405d2968	3.4556522
203	0xbefe5ee9	-0.49681786
204	0xbf7c9cf8	-0.98677015
205	0xbf394a9d	-0.72379476
206	0xbefedf2f	-0.4977965
207	0x3ec92abb	0.39290413
208	0xbf8ccbbf	-1.0999678
209	0x4008ee1a	2.1395326
210	0xbfd2b629	-1.6461841
211	0xbed0d685	-0.40788665
212	0x3e905d70	0.28196287
213	0xbd1d8aca	-0.038462438
214	0xbe1b1ac3	-0.15146928
215	0xbb4afe1f	-0.0030974222
216	0xbfda82c4	-1.7071157
217	0x3f1dbf07	0.6161961
218	0x3f2d1005	0.6760257
219	0x3f051744	0.51988626
220	0x3fa54005	1.2910162
221	0xbf3b2cbf	-0.7311515
222	0x3ed1ee1e	0.41001981
223	0xbf8f9b2b	-1.1219229
224	0xbec647e4	-0.38726723
225	0x3eb99808	0.36248803
226	0xbfa4ba1c	-1.2869296
227	0xbefdc460	-0.49563885
228	0x3e7655e9	0.2405621
229	0x3f1e6f6e	0.6188878
230	0x3ec99abb	0.39375862
231	0xbf4cc5b4	-0.7998917
232	0x3fa93886	1.3220375
233	0xbef20ab2	-0.47273785
234	0x3dfbf779	0.12303061
235	0xbf8c9ff4	-1.0986314
236	0x3ef6a92a	0.48175937
237	0x3fb30880	1.3986969
238	0xbea3fc6f	-0.3202853
239	0x3f66f398	0.90215445
240	0x3e9958a3	0.29950437
241	0xbecf87a7	-0.40533182
242	0xbfbcfd26	-1.4764755
243	0x3f1c0313	0.6094219
244	0x3eaa18f4	0.33222163
245	0xbf91fff2	-1.1406233
246	0x3f088fa7	0.53344196
247	0x3f815b79	1.010604
248	0xbfa0f401	-1.2574464
249	0xbf89d76e	-1.0768869
250	0xbe06b2c0	-0.13154125
251	0xbf482612	-0.7818309
252	0x3ec5c1dc	0.38624465
253	0xbf6fc8e8	-0.93665934
254	0x3ea00116	0.31250829
255	0x3f876c98	1.0580015

lstm.bias_ih_l0 f4 [200]
0	0x3e62b8c3	0.22140794
1	0xbda2f2e3	-0.07956483
2	0x3ea82304	0.32839215
3	0x3d582cb3	0.052777003
4	0xbf1f5d76	-0.62251985
5	0xbf632209	-0.8872381
6	0x4002f226	2.0460296
7	0x3e235005	0.15948494
8	0x3fbe0618	1.484561
9	0x3f8f7157	1.1206464
10	0x3f562a4b	0.83658284
11	0x3edee1a8	0.43531537
12	0x3f09a404	0.53765893
13	0x3e301299	0.17194594
14	0xbe979706	-0.2960741
15	0x3f55971f	0.8343372
16	0xbdcf91b0	-0.101352096
17	0x3f1464e8	0.5796647
18	0x3f818db6	1.0121372
19	0x3e04f419	0.12983741
20	0xbd1de3cd	-0.038547326
21	0xbe1e83ac	-0.15479916
22	0xbe8b04f1	-0.27152207
23	0x3edf9573	0.43668708
24	0xbeb68847	-0.35650846
25	0xbe4fb503	-0.20283894
26	0x401f0fc5	2.4853375
27	0xbec4594b	-0.38349375
28	0x3f0d7cdf	0.55268663
29	0x3d069417	0.032856073
30	0x3db83b32	0.089956656
31	0x3f81014a	1.0078518
32	0x3f6a7d96	0.9159788
33	0x3fb9d773	1.4518875
34	0x3ec527c1	0.38506892
35	0x3fa6bd6b	1.3026556
36	0x3f8c7cd0	1.097559
37	0xbf122082	-0.57080853
38	0xbe2bac69	-0.16764988
39	0xbf18dcba	-0.597118
40	0xbda6cbb1	-0.0814432
41	0xbee11f61	-0.43969253
42	0x3f198a49	0.5997663
43	0x4064e4b9	3.5764601
44	0xbeecbe95	-0.46239153
45	0x3f235514	0.63801694
46	0x3f05971a	0.5218369
47	0xbccd9855	-0.025097052
48	0xbedb7d85	-0.428692
49	0xbe01c524	-0.1267286
50	0xbedfd9be	-0.43720812
51	0xbf222f45	-0.6335338
52	0xbf1ba0d9	-0.6079231
53	0xbe956e13	-0.29185542
54	0xbeff81fe	-0.49903864
55	0xbeef79f8	-0.46772742
56	0x3eb0b8f9	0.34516123
57	0xbf0239f4	-0.5086968
58	0x3ded0bd1	0.115745194
59	0x3ef2062a	0.47270328
60	0x3c22165c	0.009893026
61	0xbd9850ac	-0.07437262
62	0x3d39f925	0.04540362
63	0xbe4f8b76	-0.20268044
64	0x3d8dc60d	0.06922541
65	0xbdb1b0ee	-0.08676325
66	0xbfbb0f15	-1.4613978
67	0x3c91272e	0.017718878
68	0x3ea0ae32	0.313829
69	0x3e7b4dbe	0.24541375
70	0xbe0eef62	-0.13958505
71	0x3d2aaf36	0.041671
72	0x3e3458a1	0.17611934
73	0x3ea652c5	0.32485023
74	0xbf273b0c	-0.65324473
75	0xbe032f68	-0.12811053
76	0x3f74f6e3	0.9568922
77	0xbe8647f8	-0.26226783
78	0xbebee531	-0.37284234
79	0xbd028ca7	-0.031872418
80	0xbefc9d84	-0.49338925
81	0x3da05196	0.07828061
82	0x3d074584	0.03302528
83	0x3f3db5bb	0.74105424
84	0xbec25789	-0.3795741
85	0x3e53c585	0.20680816
86	0x3e75cf73	0.24004917
87	0xbba044ba	-0.0048910053
88	0xbe05e88c	-0.13076991
89	0xba71dab8	-0.0009226012
90	0xbeadd371	-0.3395038
91	0xbc8b16c4	-0.016978629
92	0x3ea14471	0.3149753
93	0x3fa591ee	1.2935159
94	0xbc6fb7ff	-0.01463127
95	0xbea847c0	-0.3286724
96	0x3d879f48	0.06622177
97	0xbf2d3d92	-0.67672074
98	0x3e07e8fc	0.1327247
99	0xbcf1acdf	-0.029501377
100	0xbf831f0b	-1.0243849
101	0x3f0ace9e	0.5422152
102	0xbfcc5180	-1.5962372
103	0x3f4741b4	0.7783463
104	0xbf363ad9	-0.71183544
105	0xbfa1f32e	-1.2652338
106	0xbefd2e6a	-0.49449474
107	0x3e9afc83	0.30270776
108	0x3f9a488f	1.2053393
109	0xbf3df844	-0.7420695
110	0x3f557f65	0.83397514
111	0x3f1ed4b7	0.6204333
112	0xbed5afee	-0.41735786
113	0x3de045ee	0.10950838
114	0xbe4aeeaf	-0.19817613
115	0xbf004f57	-0.50121063
116	0x3f15d443	0.5852701
117	0xbf8901b0	-1.070364
118	0xbec943d2	-0.39309555
119	0xbf1eda37	-0.6205172
120	0xbf5530de	-0.8327769
121	0x3e4e9ec9	0.20177759
122	0xbea0ea9e	-0.31429
123	0x3eff25e6	0.49833602
124	0x3f2b97e8	0.67028666
125	0x3e465bc8	0.1937095
126	0x400d5037	2.208021
127	0xbf1ac5cb	-0.6045806
128	0x3e921f12	0.2853933
129	0xbf70d134	-0.9406922
130	0x3d948a33	0.07252922
131	0x3e1e6198	0.15466917
132	0xbf1c232e	-0.6099118
133	0x3f7e7917	0.9940352
134	0xbe82a53a	-0.25516683
135	0x3f2e8006	0.681641
136	0xbf990369	-1.1954166
137	0xbe4c0a63	-0.19925837
138	0x3e485430	0.19563365
139	0x3f19d99b	0.60097665
140	0xbf26c11b	-0.65138406
141	0xbd8b664f	-0.06806623
142	0x3f0194d6	0.5061773
143	0xbfed3f53	-1.853495
144	0x3ed9470e	0.42437023
145	0x3fb309ad	1.3987328
146	0x3d8ac0bf	0.06775045
147	0xbf4a0898	-0.78919363
148	0xbe4422f9	-0.19153966
149	0x3c7e2f0d	0.0155141475
150	0xbe83edb3	-0.25767288
151	0xbe11fecb	-0.14257352
152	0x3f2a8649	0.6661115
153	0x3effb007	0.49938986
154	0xbe79674e	-0.24355814
155	0xbf09363c	-0.5359838
156	0x3f91e39d	1.1397587
157	0x3e0e95a9	0.13924278
158	0x3ffc5bb3	1.9715484
159	0x3f9fd039	1.248542
160	0xbe6a98d4	-0.22909862
161	0xbda243ec	-0.07923111
162	0x3dfe7baf	0.124259345
163	0x3f5f2aba	0.8717457
164	0xbf21b46f	-0.63165945
165	0x3f35b47e	0.70978534
166	0xbf036956	-0.51332605
167	0x3ec873ff	0.39150998
168	0x3e91f61b	0.28508076
169	0x3f9c1a56	1.2195537
170	0xbea6d632	-0.32585293
171	0xbe829e9f	-0.25511643
172	0xbef842c6	-0.48488444
173	0x3e43012f	0.1904342
174	0xbf582121	-0.8442555
175	0x3c004c0a	0.007830629
176	0x3f3c8e86	0.73654974
177	0x3b407274	0.0029365094
178	0x3ed724b5	0.42020193
179	0xbee5aefd	-0.44860068
180	0xbec1020a	-0.37696868
181	0x3e574ee1	0.21026184
182	0x3f4f1681	0.80893713
183	0x3fb81388	1.438096
184	0x3f34fdbb	0.7069966
185	0x3f41643a	0.7554356
186	0x3f9984f3	1.1993698
187	0xbda33e4d	-0.07970867
188	0x3d4fc387	0.05072358
189	0xbe37a1a3	-0.17932753
190	0xbec810a2	-0.3907519
191	0xbcf7211f	-0.03016716
192	0x3e9e44cc	0.30911863
193	0x3fb85249	1.4400111
194	0x3d698fd9	0.05702195
195	0xbe732885	-0.23745926
196	0x3ea94dc2	0.33067137
197	0xbf4a868b	-0.79111546
198	0xbf254e70	-0.6457281
199	0x3e267dcc	0.16258925

lstm.bias_hh_l0 f4 [200]
0	0x3e3e91bc	0.18610281
1	0xbe043135	-0.12909396
2	0x3ed8849c	0.42288673
3	0x3cf63f91	0.030059608
4	0xbf25de26	-0.64792097
5	0xbf5154fa	-0.8177029
6	0x4004d6b3	2.0756042
7	0x3e46216d	0.19348688
8	0x3fd7841c	1.6837192
9	0x3f8bb007	1.0913094
10	0x3f12174f	0.57066816
11	0x3f2671ed	0.65017587
12	0x3f0942ba	0.5361744
13	0x3d822128	0.0635398
14	0xbedc6858	-0.43048358
15	0x3f260a03	0.64859027
16	0x3db8c2b0	0.09021509
17	0x3efa4348	0.48879457
18	0x3f71d7da	0.9446999
19	0x3e2aa54e	0.16664621
20	0x3e5b7803	0.214325
21	0xbe9175ed	-0.28410283
22	0xbec5f9ab	-0.38667044
23	0x3f01dfac	0.5073192
24	0xbf072972	-0.52797616
25	0xbea63ecb	-0.32469782
26	0x40225987	2.5367143
27	0xbf04032a	-0.5156733
28	0x3f2379ad	0.6385754
29	0xbd2f7cb2	-0.042843528
30	0x3d342163	0.043977153
31	0x3f68176a	0.9066073
32	0x3f4b4ff7	0.7941889
33	0x3fcc97b1	1.5983793
34	0x3eaddd18	0.33957744
35	0x3fa30af1	1.2737714
36	0x3f8a7c98	1.0819273
37	0xbf187665	-0.59555656
38	0xbeb70a9b	-0.3575028
39	0xbf162736	-0.5865358
40	0xbe0c017b	-0.1367244
41	0xbede8320	-0.43459415
42	0x3ef499ad	0.47773495
43	0x405c39cb	3.4410274
44	0xbf0b894c	-0.54506373
45	0x3f2ba416	0.6704725
46	0x3eadf9bd	0.33979598
47	0x3d2129d0	0.039346516
48	0xbea4fc5e	-0.3222379
49	0xbcbf477f	-0.023349522
50	0xbe990f09	-0.29894283
51	0xbf3a1604	-0.72689843
52	0xbf13a6bb	-0.57676286
53	0xbe66834b	-0.22511022
54	0xbef466c9	-0.4773467
55	0xbedcdc0f	-0.4313664
56	0x3e707cc2	0.23485091
57	0xbf2a56c4	-0.66538644
58	0x3eb17030	0.34655905
59	0x3ecb9739	0.3976381
60	0x3d871b79	0.06597037
61	0xbd83e51e	-0.06440185
62	0x3e4d68b3	0.20059471
63	0xbdb52410	-0.08844769
64	0x3d60dd67	0.054898646
65	0x3d4b3208	0.04960826
66	0xbfa5ee14	-1.2963281
67	0x3e739420	0.23786974
68	0x3e300d5a	0.17192593
69	0x3e468986	0.19388399
70	0xbb648849	-0.0034871271
71	0xbcbb23f2	-0.022844288
72	0xbd84c074	-0.0648202
73	0x3ea343f1	0.31887773
74	0xbf0103c1	-0.50396353
75	0xbc950d35	-0.018194774
76	0x3f86357f	1.0485076
77	0xbee231ee	-0.44178718
78	0xbea2c06e	-0.31787437
79	0xbe3dc7ee	-0.18533298
80	0xbee37c7a	-0.44430906
81	0x3e6aaf1c	0.22918361
82	0x3cc426ec	0.02394434
83	0x3f0f3bdb	0.5595071
84	0xbf032256	-0.5122427
85	0x3e6f652d	0.23378439
86	0x3ebc0362	0.3672133
87	0xbe26b8b3	-0.16281395
88	0xbd8f74d7	-0.07004707
89	0xbe06d241	-0.13166143
90	0xbe5fbfbd	-0.21850486
91	0x3e1f6c0c	0.1556856
92	0x3e8ff959	0.28119925
93	0x3fa2459a	1.2677491
94	0x3e23c98c	0.15994853
95	0xbe7fba53	-0.24973421
96	0x3d9d0949	0.07667787
97	0xbed2786f	-0.4110751
98	0x3d5ce294	0.05392702
99	0xbe2ea1e5	-0.17053945
100	0xbf82545d	-1.0181996
101	0x3f008e54	0.50217175
102	0xbfcd5e14	-1.6044335
103	0x3f37b281	0.7175675
104	0xbf68dcf9	-0.9096218
105	0xbfae2c41	-1.3607255
106	0xbeec2e9e	-0.46129316
107	0x3d6ddf41	0.05807424
108	0x3f99cb30	1.2015133
109	0xbf3438fe	-0.70399463
110	0x3f34676b	0.70470303
111	0x3ee4469e	0.44585127
112	0xbe8a943b	-0.27066216
113	0x3e7d67ec	0.24746674
114	0xbe630c97	-0.22172771
115	0xbf04d342	-0.51884854
116	0x3ee06153	0.43824252
117	0xbf6724e7	-0.90290684
118	0xbed38658	-0.41313434
119	0xbf27cfd9	-0.65551525
120	0xbf835984	-1.0261693
121	0x3ebee0b6	0.37280816
122	0xbe46095f	-0.19339512
123	0x3f2beb64	0.6715605
124	0x3f1a936a	0.60381186
125	0x3e53ecd4	0.20695812
126	0x4010dc8f	2.2634618
127	0xbf0543fc	-0.5205686
128	0x3ea99999	0.33124998
129	0xbf4cf3fa	-0.8005978
130	0x3e50f28a	0.20405021
131	0x3dc759fe	0.097339615
132	0xbf1ba2f7	-0.6079554
133	0x3f6e278f	0.9302911
134	0xbedd4eb1	-0.432241
135	0x3f1b433e	0.6064948
136	0xbf86f381	-1.0543061
137	0xbe0be74c	-0.13662452
138	0x3e6bf2d0	0.23041844
139	0x3f2bffb1	0.6718703
140	0xbf05eb28	-0.52311945
141	0xbdf09ad1	-0.11748279
142	0x3ed69b69	0.41915444
143	0xc002d769	-2.0443976
144	0x3eac7ceb	0.33689055
145	0x3fc47d7c	1.5350795
146	0x3e345e60	0.17614126
147	0xbf57c19e	-0.8427981
148	0xbe99c4d0	-0.3003297
149	0x3e2a1250	0.16608548
150	0xbe792b9d	-0.24333043
151	0xbe14b866	-0.14523467
152	0x3f353507	0.7078404
153	0x3ee924ad	0.45535794
154	0xbe596143	-0.21228509
155	0xbed294f0	-0.41129255
156	0x3f7a7a12	0.97842515
157	0x3da67bed	0.08129106
158	0x4000adb6	2.0106025
159	0x3f9c2b2d	1.2200676
160	0xbe928258	-0.2861507
161	0x3d9dcad5	0.07704703
162	0x3ec51ca2	0.38498408
163	0x3f50de71	0.8158942
164	0xbf26910b	-0.6506507
165	0x3f1cb05a	0.6120659
166	0xbee686e4	-0.45024788
167	0x3eddbdbf	0.43308827
168	0x3e99f083	0.30066308
169	0x3f7ebe59	0.995092
170	0xbdc41b48	-0.09575516
171	0xbeaa62bf	-0.33278462
172	0xbf1952cc	-0.59891963
173	0x3e807cbc	0.25095165
174	0xbf5124f9	-0.8169704
175	0xbd67f82e	-0.056633167
176	0x3f1bfd78	0.6093364
177	0x3e211916	0.15732226
178	0x3efbcd51	0.4918008
179	0xbedba95d	-0.4290265
180	0xbe78e866	-0.24307403
181	0x3e7dc77f	0.24783133
182	0x3f2b8cb0	0.6701155
183	0x3fc5fb04	1.5467229
184	0x3f0046ef	0.50108236
185	0x3f24290b	0.64125127
186	0x3fb19091	1.3872243
187	0xbe816413	-0.25271663
188	0x3dcae02e	0.0990604
189	0xbdfacec9	-0.122464724
190	0xbecc767c	-0.39934146
191	0xbd222987	-0.039590385
192	0x3ea3736c	0.31923997
193	0x3fcb904a	1.5903409
194	0x3d625ca6	0.055264138
195	0xbea0c455	-0.3139979
196	0x3f0d25db	0.5513589
197	0xbf449929	-0.76796204
198	0xbf08ceef	-0.53440756
199	0x3da0e312	0.0785581

linear.weight f4 [1, 50]
0	0x3f97a19b	1.1846193
1	0xbfa240cd	-1.2676026
2	0xbf5cbade	-0.86222637
3	0xbf7ab357	-0.979299
4	0xbf1af71e	-0.6053332
5	0xbfc0ea65	-1.5071532
6	0xbfb1ede9	-1.390073
7	0x3f3ff4eb	0.7498309
8	0x3e9e5155	0.30921426
9	0xbf586abf	-0.8453788
10	0x3ed6bda8	0.4194157
11	0xbf2748f7	-0.6534571
12	0xbf255934	-0.6458924
13	0x3f81473a	1.0099862
14	0x3e0be6c2	0.13662246
15	0x3fa6742a	1.30042
16	0xc0032283	-2.0489814
17	0x3eab4b48	0.33455873
18	0xbf467794	-0.7752621
19	0xbf971d0c	-1.1805739
20	0x3ef95e77	0.48704883
21	0xbf3e189e	-0.7425631
22	0x3ec68d3f	0.38779637
23	0x3f6eaeca	0.93235457
24	0xbf66ba38	-0.901279
25	0x3f77a893	0.967416
26	0xbe94b902	-0.290474
27	0xbf5bd3f9	-0.8587032
28	0xbe4bb047	-0.19891463
29	0x3f5119be	0.81679904
30	0x3f9e15b1	1.235037
31	0x3f95850e	1.168123
32	0xbf388386	-0.7207569
33	0x3e22f671	0.15914322
34	0x3f5df8ee	0.8670796
35	0x3fccd63b	1.6002878
36	0xbf6e49b6	-0.93081224
37	0x3fd6d3b0	1.6783352
38	0xbf0c942e	-0.54913604
39	0xbf5db4f5	-0.86604244
40	0x3fb7f09f	1.4370307
41	0x3f8e19c7	1.1101617
42	0xbf563ec2	-0.8368951
43	0xbe375cb4	-0.17906457
44	0xbeb49278	-0.35267997
45	0xbff71f24	-1.9306378
46	0xbf96ade9	-1.1771823
47	0xbd7cfa69	-0.061762247
48	0x3df5ab7d	0.119955994
49	0x3ee53a2c	0.44770944
